…
I0415 04:06:51.083341   174 net.cpp:323] The NetState phase (0) differed from the phase (1) specified by a rule in layer accuracy
I0415 04:06:51.083492   174 net.cpp:52] Initializing net from parameters:
state {
phase: TRAIN
}
layer {
name: "data"
type: "Data"
top: "data"
include {
phase: TRAIN
}
transform_param {
mean_file: "/jobs/20180415-035312-4d49/train_db/mean.binaryproto"
}
data_param {
source: "/jobs/20180415-035312-4d49/train_db/features"
batch_size: 4
backend: LMDB
}
}
layer {
name: "label"
type: "Data"
top: "label"
include {
phase: TRAIN
}
data_param {
source: "/jobs/20180415-035312-4d49/train_db/labels"
batch_size: 4
backend: LMDB
}
}
layer {
name: "conv1"
type: "Convolution"
bottom: "data"
top: "conv1"
convolution_param {
num_output: 96
pad: 100
kernel_size: 11
group: 1
stride: 4
}
}
layer {
name: "relu1"
type: "ReLU"
bottom: "conv1"
top: "conv1"
}
layer {
name: "pool1"
type: "Pooling"
bottom: "conv1"
top: "pool1"
pooling_param {
pool: MAX
kernel_size: 3
stride: 2
}
}
layer {
name: "norm1"
type: "LRN"
bottom: "pool1"
top: "norm1"
lrn_param {
local_size: 5
alpha: 0.0001
beta: 0.75
}
}
layer {
name: "conv2"
type: "Convolution"
bottom: "norm1"
top: "conv2"
convolution_param {
num_output: 256
pad: 2
kernel_size: 5
group: 2
stride: 1
}
}
layer {
name: "relu2"
type: "ReLU"
bottom: "conv2"
top: "conv2"
}
layer {
name: "pool2"
type: "Pooling"
bottom: "conv2"
top: "pool2"
pooling_param {
pool: MAX
kernel_size: 3
stride: 2
}
}
layer {
name: "norm2"
type: "LRN"
bottom: "pool2"
top: "norm2"
lrn_param {
local_size: 5
alpha: 0.0001
beta: 0.75
}
}
layer {
name: "conv3"
type: "Convolution"
bottom: "norm2"
top: "conv3"
convolution_param {
num_output: 384
pad: 1
kernel_size: 3
group: 1
stride: 1
}
}
layer {
name: "relu3"
type: "ReLU"
bottom: "conv3"
top: "conv3"
}
layer {
name: "conv4"
type: "Convolution"
bottom: "conv3"
top: "conv4"
convolution_param {
num_output: 384
pad: 1
kernel_size: 3
group: 2
stride: 1
}
}
layer {
name: "relu4"
type: "ReLU"
bottom: "conv4"
top: "conv4"
}
layer {
name: "conv5"
type: "Convolution"
bottom: "conv4"
top: "conv5"
convolution_param {
num_output: 256
pad: 1
kernel_size: 3
group: 2
stride: 1
}
}
layer {
name: "relu5"
type: "ReLU"
bottom: "conv5"
top: "conv5"
}
layer {
name: "pool5"
type: "Pooling"
bottom: "conv5"
top: "pool5"
pooling_param {
pool: MAX
kernel_size: 3
stride: 2
}
}
layer {
name: "fc6"
type: "Convolution"
bottom: "pool5"
top: "fc6"
convolution_param {
num_output: 4096
pad: 0
kernel_size: 6
group: 1
stride: 1
}
}
layer {
name: "relu6"
type: "ReLU"
bottom: "fc6"
top: "fc6"
}
layer {
name: "drop6"
type: "Dropout"
bottom: "fc6"
top: "fc6"
dropout_param {
dropout_ratio: 0.5
}
}
layer {
name: "fc7"
type: "Convolution"
bottom: "fc6"
top: "fc7"
convolution_param {
num_output: 4096
pad: 0
kernel_size: 1
group: 1
stride: 1
}
}
layer {
name: "relu7"
type: "ReLU"
bottom: "fc7"
top: "fc7"
}
layer {
name: "drop7"
type: "Dropout"
bottom: "fc7"
top: "fc7"
dropout_param {
dropout_ratio: 0.5
}
}
layer {
name: "score_fr_2classes"
type: "Convolution"
bottom: "fc7"
top: "score_fr_2classes"
param {
lr_mult: 1
decay_mult: 1
}
param {
lr_mult: 2
decay_mult: 0
}
convolution_param {
num_output: 2
pad: 0
kernel_size: 1
}
}
layer {
name: "upscore_2classes"
type: "Deconvolution"
bottom: "score_fr_2classes"
top: "upscore_2classes"
param {
lr_mult: 0
}
convolution_param {
num_output: 2
bias_term: false
kernel_size: 63
group: 2
stride: 32
weight_filler {
type: "bilinear"
}
}
}
layer {
name: "score"
type: "Crop"
bottom: "upscore_2classes"
bottom: "data"
top: "score"
crop_param {
axis: 2
offset: 18
}
}
layer {
name: "loss"
type: "SoftmaxWithLoss"
bottom: "score"
bottom: "label"
top: "loss"
loss_param {
normalize: true
}
}
I0415 04:06:51.083636   174 layer_factory.hpp:77] Creating layer data
I0415 04:06:51.084967   174 net.cpp:94] Creating Layer data
I0415 04:06:51.084983   174 net.cpp:409] data -> data
I0415 04:06:51.085016   174 data_transformer.cpp:25] Loading mean file from: /jobs/20180415-035312-4d49/train_db/mean.binaryproto
I0415 04:06:51.085397   186 db_lmdb.cpp:35] Opened lmdb /jobs/20180415-035312-4d49/train_db/features
I0415 04:06:51.086858   174 data_layer.cpp:76] output data size: 4,1,256,256
I0415 04:06:51.089395   174 net.cpp:144] Setting up data
I0415 04:06:51.089445   174 net.cpp:151] Top shape: 4 1 256 256 (262144)
I0415 04:06:51.089453   174 net.cpp:159] Memory required for data: 1048576
I0415 04:06:51.089462   174 layer_factory.hpp:77] Creating layer data_data_0_split
I0415 04:06:51.089506   174 net.cpp:94] Creating Layer data_data_0_split
I0415 04:06:51.089540   174 net.cpp:435] data_data_0_split <- data
I0415 04:06:51.089550   174 net.cpp:409] data_data_0_split -> data_data_0_split_0
I0415 04:06:51.089568   174 net.cpp:409] data_data_0_split -> data_data_0_split_1
I0415 04:06:51.089648   174 net.cpp:144] Setting up data_data_0_split
I0415 04:06:51.089659   174 net.cpp:151] Top shape: 4 1 256 256 (262144)
I0415 04:06:51.089664   174 net.cpp:151] Top shape: 4 1 256 256 (262144)
I0415 04:06:51.089668   174 net.cpp:159] Memory required for data: 3145728
I0415 04:06:51.089673   174 layer_factory.hpp:77] Creating layer label
I0415 04:06:51.091274   174 net.cpp:94] Creating Layer label
I0415 04:06:51.091289   174 net.cpp:409] label -> label
I0415 04:06:51.091620   196 db_lmdb.cpp:35] Opened lmdb /jobs/20180415-035312-4d49/train_db/labels
I0415 04:06:51.091897   174 data_layer.cpp:76] output data size: 4,1,256,256
I0415 04:06:51.094678   174 net.cpp:144] Setting up label
I0415 04:06:51.094698   174 net.cpp:151] Top shape: 4 1 256 256 (262144)
I0415 04:06:51.094705   174 net.cpp:159] Memory required for data: 4194304
I0415 04:06:51.094713   174 layer_factory.hpp:77] Creating layer conv1
I0415 04:06:51.094796   174 net.cpp:94] Creating Layer conv1
I0415 04:06:51.094811   174 net.cpp:435] conv1 <- data_data_0_split_0
I0415 04:06:51.094836   174 net.cpp:409] conv1 -> conv1
I0415 04:06:51.621687   174 net.cpp:144] Setting up conv1
I0415 04:06:51.621718   174 net.cpp:151] Top shape: 4 96 112 112 (4816896)
I0415 04:06:51.621724   174 net.cpp:159] Memory required for data: 23461888
I0415 04:06:51.621750   174 layer_factory.hpp:77] Creating layer relu1
I0415 04:06:51.621768   174 net.cpp:94] Creating Layer relu1
I0415 04:06:51.621774   174 net.cpp:435] relu1 <- conv1
I0415 04:06:51.621783   174 net.cpp:396] relu1 -> conv1 (in-place)
I0415 04:06:51.621805   174 net.cpp:144] Setting up relu1
I0415 04:06:51.621812   174 net.cpp:151] Top shape: 4 96 112 112 (4816896)
I0415 04:06:51.621846   174 net.cpp:159] Memory required for data: 42729472
I0415 04:06:51.621851   174 layer_factory.hpp:77] Creating layer pool1
I0415 04:06:51.621863   174 net.cpp:94] Creating Layer pool1
I0415 04:06:51.621868   174 net.cpp:435] pool1 <- conv1
I0415 04:06:51.621876   174 net.cpp:409] pool1 -> pool1
I0415 04:06:51.621960   174 net.cpp:144] Setting up pool1
I0415 04:06:51.622004   174 net.cpp:151] Top shape: 4 96 56 56 (1204224)
I0415 04:06:51.622010   174 net.cpp:159] Memory required for data: 47546368
I0415 04:06:51.622014   174 layer_factory.hpp:77] Creating layer norm1
I0415 04:06:51.622027   174 net.cpp:94] Creating Layer norm1
I0415 04:06:51.622033   174 net.cpp:435] norm1 <- pool1
I0415 04:06:51.622040   174 net.cpp:409] norm1 -> norm1
I0415 04:06:51.622093   174 net.cpp:144] Setting up norm1
I0415 04:06:51.622102   174 net.cpp:151] Top shape: 4 96 56 56 (1204224)
I0415 04:06:51.622107   174 net.cpp:159] Memory required for data: 52363264
I0415 04:06:51.622110   174 layer_factory.hpp:77] Creating layer conv2
I0415 04:06:51.622123   174 net.cpp:94] Creating Layer conv2
I0415 04:06:51.622128   174 net.cpp:435] conv2 <- norm1
I0415 04:06:51.622134   174 net.cpp:409] conv2 -> conv2
I0415 04:06:51.686450   174 net.cpp:144] Setting up conv2
I0415 04:06:51.686465   174 net.cpp:151] Top shape: 4 256 56 56 (3211264)
I0415 04:06:51.686470   174 net.cpp:159] Memory required for data: 65208320
I0415 04:06:51.686492   174 layer_factory.hpp:77] Creating layer relu2
I0415 04:06:51.686502   174 net.cpp:94] Creating Layer relu2
I0415 04:06:51.686507   174 net.cpp:435] relu2 <- conv2
I0415 04:06:51.686514   174 net.cpp:396] relu2 -> conv2 (in-place)
I0415 04:06:51.686523   174 net.cpp:144] Setting up relu2
I0415 04:06:51.686529   174 net.cpp:151] Top shape: 4 256 56 56 (3211264)
I0415 04:06:51.686533   174 net.cpp:159] Memory required for data: 78053376
I0415 04:06:51.686537   174 layer_factory.hpp:77] Creating layer pool2
I0415 04:06:51.686553   174 net.cpp:94] Creating Layer pool2
I0415 04:06:51.686558   174 net.cpp:435] pool2 <- conv2
I0415 04:06:51.686564   174 net.cpp:409] pool2 -> pool2
I0415 04:06:51.686612   174 net.cpp:144] Setting up pool2
I0415 04:06:51.686622   174 net.cpp:151] Top shape: 4 256 28 28 (802816)
I0415 04:06:51.686626   174 net.cpp:159] Memory required for data: 81264640
I0415 04:06:51.686630   174 layer_factory.hpp:77] Creating layer norm2
I0415 04:06:51.686638   174 net.cpp:94] Creating Layer norm2
I0415 04:06:51.686643   174 net.cpp:435] norm2 <- pool2
I0415 04:06:51.686650   174 net.cpp:409] norm2 -> norm2
I0415 04:06:51.686688   174 net.cpp:144] Setting up norm2
I0415 04:06:51.686697   174 net.cpp:151] Top shape: 4 256 28 28 (802816)
I0415 04:06:51.686700   174 net.cpp:159] Memory required for data: 84475904
I0415 04:06:51.686705   174 layer_factory.hpp:77] Creating layer conv3
I0415 04:06:51.686714   174 net.cpp:94] Creating Layer conv3
I0415 04:06:51.686718   174 net.cpp:435] conv3 <- norm2
I0415 04:06:51.686725   174 net.cpp:409] conv3 -> conv3
I0415 04:06:51.768949   174 net.cpp:144] Setting up conv3
I0415 04:06:51.768965   174 net.cpp:151] Top shape: 4 384 28 28 (1204224)
I0415 04:06:51.768968   174 net.cpp:159] Memory required for data: 89292800
I0415 04:06:51.768980   174 layer_factory.hpp:77] Creating layer relu3
I0415 04:06:51.768988   174 net.cpp:94] Creating Layer relu3
I0415 04:06:51.768993   174 net.cpp:435] relu3 <- conv3
I0415 04:06:51.769001   174 net.cpp:396] relu3 -> conv3 (in-place)
I0415 04:06:51.769009   174 net.cpp:144] Setting up relu3
I0415 04:06:51.769016   174 net.cpp:151] Top shape: 4 384 28 28 (1204224)
I0415 04:06:51.769018   174 net.cpp:159] Memory required for data: 94109696
I0415 04:06:51.769022   174 layer_factory.hpp:77] Creating layer conv4
I0415 04:06:51.769032   174 net.cpp:94] Creating Layer conv4
I0415 04:06:51.769037   174 net.cpp:435] conv4 <- conv3
I0415 04:06:51.769043   174 net.cpp:409] conv4 -> conv4
I0415 04:06:51.856184   174 net.cpp:144] Setting up conv4
I0415 04:06:51.856199   174 net.cpp:151] Top shape: 4 384 28 28 (1204224)
I0415 04:06:51.856225   174 net.cpp:159] Memory required for data: 98926592
I0415 04:06:51.856235   174 layer_factory.hpp:77] Creating layer relu4
I0415 04:06:51.856242   174 net.cpp:94] Creating Layer relu4
I0415 04:06:51.856247   174 net.cpp:435] relu4 <- conv4
I0415 04:06:51.856254   174 net.cpp:396] relu4 -> conv4 (in-place)
I0415 04:06:51.856263   174 net.cpp:144] Setting up relu4
I0415 04:06:51.856271   174 net.cpp:151] Top shape: 4 384 28 28 (1204224)
I0415 04:06:51.856274   174 net.cpp:159] Memory required for data: 103743488
I0415 04:06:51.856278   174 layer_factory.hpp:77] Creating layer conv5
I0415 04:06:51.856287   174 net.cpp:94] Creating Layer conv5
I0415 04:06:51.856292   174 net.cpp:435] conv5 <- conv4
I0415 04:06:51.856298   174 net.cpp:409] conv5 -> conv5
I0415 04:06:51.911765   174 net.cpp:144] Setting up conv5
I0415 04:06:51.911792   174 net.cpp:151] Top shape: 4 256 28 28 (802816)
I0415 04:06:51.911797   174 net.cpp:159] Memory required for data: 106954752
I0415 04:06:51.911813   174 layer_factory.hpp:77] Creating layer relu5
I0415 04:06:51.911844   174 net.cpp:94] Creating Layer relu5
I0415 04:06:51.911851   174 net.cpp:435] relu5 <- conv5
I0415 04:06:51.911859   174 net.cpp:396] relu5 -> conv5 (in-place)
I0415 04:06:51.911871   174 net.cpp:144] Setting up relu5
I0415 04:06:51.911877   174 net.cpp:151] Top shape: 4 256 28 28 (802816)
I0415 04:06:51.911881   174 net.cpp:159] Memory required for data: 110166016
I0415 04:06:51.911885   174 layer_factory.hpp:77] Creating layer pool5
I0415 04:06:51.911893   174 net.cpp:94] Creating Layer pool5
I0415 04:06:51.911898   174 net.cpp:435] pool5 <- conv5
I0415 04:06:51.911906   174 net.cpp:409] pool5 -> pool5
I0415 04:06:51.911969   174 net.cpp:144] Setting up pool5
I0415 04:06:51.911978   174 net.cpp:151] Top shape: 4 256 14 14 (200704)
I0415 04:06:51.911983   174 net.cpp:159] Memory required for data: 110968832
I0415 04:06:51.911986   174 layer_factory.hpp:77] Creating layer fc6
I0415 04:06:51.911998   174 net.cpp:94] Creating Layer fc6
I0415 04:06:51.912003   174 net.cpp:435] fc6 <- pool5
I0415 04:06:51.912009   174 net.cpp:409] fc6 -> fc6
I0415 04:06:52.447435   174 net.cpp:144] Setting up fc6
I0415 04:06:52.447471   174 net.cpp:151] Top shape: 4 4096 9 9 (1327104)
I0415 04:06:52.447475   174 net.cpp:159] Memory required for data: 116277248
I0415 04:06:52.447490   174 layer_factory.hpp:77] Creating layer relu6
I0415 04:06:52.447504   174 net.cpp:94] Creating Layer relu6
I0415 04:06:52.447510   174 net.cpp:435] relu6 <- fc6
I0415 04:06:52.447520   174 net.cpp:396] relu6 -> fc6 (in-place)
I0415 04:06:52.447531   174 net.cpp:144] Setting up relu6
I0415 04:06:52.447537   174 net.cpp:151] Top shape: 4 4096 9 9 (1327104)
I0415 04:06:52.447541   174 net.cpp:159] Memory required for data: 121585664
I0415 04:06:52.447546   174 layer_factory.hpp:77] Creating layer drop6
I0415 04:06:52.447558   174 net.cpp:94] Creating Layer drop6
I0415 04:06:52.447563   174 net.cpp:435] drop6 <- fc6
I0415 04:06:52.447569   174 net.cpp:396] drop6 -> fc6 (in-place)
I0415 04:06:52.447610   174 net.cpp:144] Setting up drop6
I0415 04:06:52.447618   174 net.cpp:151] Top shape: 4 4096 9 9 (1327104)
I0415 04:06:52.447623   174 net.cpp:159] Memory required for data: 126894080
I0415 04:06:52.447626   174 layer_factory.hpp:77] Creating layer fc7
I0415 04:06:52.447638   174 net.cpp:94] Creating Layer fc7
I0415 04:06:52.447643   174 net.cpp:435] fc7 <- fc6
I0415 04:06:52.447649   174 net.cpp:409] fc7 -> fc7
I0415 04:06:52.710539   174 net.cpp:144] Setting up fc7
I0415 04:06:52.710574   174 net.cpp:151] Top shape: 4 4096 9 9 (1327104)
I0415 04:06:52.710579   174 net.cpp:159] Memory required for data: 132202496
I0415 04:06:52.710599   174 layer_factory.hpp:77] Creating layer relu7
I0415 04:06:52.710613   174 net.cpp:94] Creating Layer relu7
I0415 04:06:52.710618   174 net.cpp:435] relu7 <- fc7
I0415 04:06:52.710628   174 net.cpp:396] relu7 -> fc7 (in-place)
I0415 04:06:52.710639   174 net.cpp:144] Setting up relu7
I0415 04:06:52.710645   174 net.cpp:151] Top shape: 4 4096 9 9 (1327104)
I0415 04:06:52.710695   174 net.cpp:159] Memory required for data: 137510912
I0415 04:06:52.710700   174 layer_factory.hpp:77] Creating layer drop7
I0415 04:06:52.710708   174 net.cpp:94] Creating Layer drop7
I0415 04:06:52.710713   174 net.cpp:435] drop7 <- fc7
I0415 04:06:52.710719   174 net.cpp:396] drop7 -> fc7 (in-place)
I0415 04:06:52.710757   174 net.cpp:144] Setting up drop7
I0415 04:06:52.710765   174 net.cpp:151] Top shape: 4 4096 9 9 (1327104)
I0415 04:06:52.710769   174 net.cpp:159] Memory required for data: 142819328
I0415 04:06:52.710773   174 layer_factory.hpp:77] Creating layer score_fr_2classes
I0415 04:06:52.710785   174 net.cpp:94] Creating Layer score_fr_2classes
I0415 04:06:52.710789   174 net.cpp:435] score_fr_2classes <- fc7
I0415 04:06:52.710798   174 net.cpp:409] score_fr_2classes -> score_fr_2classes
I0415 04:06:52.719177   174 net.cpp:144] Setting up score_fr_2classes
I0415 04:06:52.719192   174 net.cpp:151] Top shape: 4 2 9 9 (648)
I0415 04:06:52.719197   174 net.cpp:159] Memory required for data: 142821920
I0415 04:06:52.719205   174 layer_factory.hpp:77] Creating layer upscore_2classes
I0415 04:06:52.719221   174 net.cpp:94] Creating Layer upscore_2classes
I0415 04:06:52.719226   174 net.cpp:435] upscore_2classes <- score_fr_2classes
I0415 04:06:52.719234   174 net.cpp:409] upscore_2classes -> upscore_2classes
I0415 04:06:52.719745   174 net.cpp:144] Setting up upscore_2classes
I0415 04:06:52.719756   174 net.cpp:151] Top shape: 4 2 319 319 (814088)
I0415 04:06:52.719760   174 net.cpp:159] Memory required for data: 146078272
I0415 04:06:52.719771   174 layer_factory.hpp:77] Creating layer score
I0415 04:06:52.719780   174 net.cpp:94] Creating Layer score
I0415 04:06:52.719785   174 net.cpp:435] score <- upscore_2classes
I0415 04:06:52.719790   174 net.cpp:435] score <- data_data_0_split_1
I0415 04:06:52.719797   174 net.cpp:409] score -> score
I0415 04:06:52.719828   174 net.cpp:144] Setting up score
I0415 04:06:52.719836   174 net.cpp:151] Top shape: 4 2 256 256 (524288)
I0415 04:06:52.719841   174 net.cpp:159] Memory required for data: 148175424
I0415 04:06:52.719846   174 layer_factory.hpp:77] Creating layer loss
I0415 04:06:52.719857   174 net.cpp:94] Creating Layer loss
I0415 04:06:52.719861   174 net.cpp:435] loss <- score
I0415 04:06:52.719866   174 net.cpp:435] loss <- label
I0415 04:06:52.719873   174 net.cpp:409] loss -> loss
I0415 04:06:52.719887   174 layer_factory.hpp:77] Creating layer loss
…
I0415 04:06:52.721747   174 net.cpp:323] The NetState phase (1) differed from the phase (0) specified by a rule in layer label
I0415 04:06:52.721909   174 net.cpp:52] Initializing net from parameters:
state {
phase: TEST
}
layer {
name: "data"
type: "Data"
top: "data"
include {
phase: TEST
}
transform_param {
mean_file: "/jobs/20180415-035312-4d49/train_db/mean.binaryproto"
}
data_param {
source: "/jobs/20180415-035312-4d49/val_db/features"
batch_size: 4
backend: LMDB
}
}
layer {
name: "label"
type: "Data"
top: "label"
include {
phase: TEST
}
data_param {
source: "/jobs/20180415-035312-4d49/val_db/labels"
batch_size: 4
backend: LMDB
}
}
layer {
name: "conv1"
type: "Convolution"
bottom: "data"
top: "conv1"
convolution_param {
num_output: 96
pad: 100
kernel_size: 11
group: 1
stride: 4
}
}
layer {
name: "relu1"
type: "ReLU"
bottom: "conv1"
top: "conv1"
}
layer {
name: "pool1"
type: "Pooling"
bottom: "conv1"
top: "pool1"
pooling_param {
pool: MAX
kernel_size: 3
stride: 2
}
}
layer {
name: "norm1"
type: "LRN"
bottom: "pool1"
top: "norm1"
lrn_param {
local_size: 5
alpha: 0.0001
beta: 0.75
}
}
layer {
name: "conv2"
type: "Convolution"
bottom: "norm1"
top: "conv2"
convolution_param {
num_output: 256
pad: 2
kernel_size: 5
group: 2
stride: 1
}
}
layer {
name: "relu2"
type: "ReLU"
bottom: "conv2"
top: "conv2"
}
layer {
name: "pool2"
type: "Pooling"
bottom: "conv2"
top: "pool2"
pooling_param {
pool: MAX
kernel_size: 3
stride: 2
}
}
layer {
name: "norm2"
type: "LRN"
bottom: "pool2"
top: "norm2"
lrn_param {
local_size: 5
alpha: 0.0001
beta: 0.75
}
}
layer {
name: "conv3"
type: "Convolution"
bottom: "norm2"
top: "conv3"
convolution_param {
num_output: 384
pad: 1
kernel_size: 3
group: 1
stride: 1
}
}
layer {
name: "relu3"
type: "ReLU"
bottom: "conv3"
top: "conv3"
}
layer {
name: "conv4"
type: "Convolution"
bottom: "conv3"
top: "conv4"
convolution_param {
num_output: 384
pad: 1
kernel_size: 3
group: 2
stride: 1
}
}
layer {
name: "relu4"
type: "ReLU"
bottom: "conv4"
top: "conv4"
}
layer {
name: "conv5"
type: "Convolution"
bottom: "conv4"
top: "conv5"
convolution_param {
num_output: 256
pad: 1
kernel_size: 3
group: 2
stride: 1
}
}
layer {
name: "relu5"
type: "ReLU"
bottom: "conv5"
top: "conv5"
}
layer {
name: "pool5"
type: "Pooling"
bottom: "conv5"
top: "pool5"
pooling_param {
pool: MAX
kernel_size: 3
stride: 2
}
}
layer {
name: "fc6"
type: "Convolution"
bottom: "pool5"
top: "fc6"
convolution_param {
num_output: 4096
pad: 0
kernel_size: 6
group: 1
stride: 1
}
}
layer {
name: "relu6"
type: "ReLU"
bottom: "fc6"
top: "fc6"
}
layer {
name: "drop6"
type: "Dropout"
bottom: "fc6"
top: "fc6"
dropout_param {
dropout_ratio: 0.5
}
}
layer {
name: "fc7"
type: "Convolution"
bottom: "fc6"
top: "fc7"
convolution_param {
num_output: 4096
pad: 0
kernel_size: 1
group: 1
stride: 1
}
}
layer {
name: "relu7"
type: "ReLU"
bottom: "fc7"
top: "fc7"
}
layer {
name: "drop7"
type: "Dropout"
bottom: "fc7"
top: "fc7"
dropout_param {
dropout_ratio: 0.5
}
}
layer {
name: "score_fr_2classes"
type: "Convolution"
bottom: "fc7"
top: "score_fr_2classes"
param {
lr_mult: 1
decay_mult: 1
}
param {
lr_mult: 2
decay_mult: 0
}
convolution_param {
num_output: 2
pad: 0
kernel_size: 1
}
}
layer {
name: "upscore_2classes"
type: "Deconvolution"
bottom: "score_fr_2classes"
top: "upscore_2classes"
param {
lr_mult: 0
}
convolution_param {
num_output: 2
bias_term: false
kernel_size: 63
group: 2
stride: 32
weight_filler {
type: "bilinear"
}
}
}
layer {
name: "score"
type: "Crop"
bottom: "upscore_2classes"
bottom: "data"
top: "score"
crop_param {
axis: 2
offset: 18
}
}
layer {
name: "loss"
type: "SoftmaxWithLoss"
bottom: "score"
bottom: "label"
top: "loss"
loss_param {
normalize: true
}
}
layer {
name: "accuracy"
type: "Accuracy"
bottom: "score"
bottom: "label"
top: "accuracy"
include {
phase: TEST
}
}
I0415 04:06:52.722048   174 layer_factory.hpp:77] Creating layer data
I0415 04:06:52.722764   174 net.cpp:94] Creating Layer data
I0415 04:06:52.722776   174 net.cpp:409] data -> data
I0415 04:06:52.722787   174 data_transformer.cpp:25] Loading mean file from: /jobs/20180415-035312-4d49/train_db/mean.binaryproto
I0415 04:06:52.723114   206 db_lmdb.cpp:35] Opened lmdb /jobs/20180415-035312-4d49/val_db/features
I0415 04:06:52.723776   174 data_layer.cpp:76] output data size: 4,1,256,256
I0415 04:06:52.726523   174 net.cpp:144] Setting up data
I0415 04:06:52.726539   174 net.cpp:151] Top shape: 4 1 256 256 (262144)
I0415 04:06:52.726543   174 net.cpp:159] Memory required for data: 1048576
I0415 04:06:52.726548   174 layer_factory.hpp:77] Creating layer data_data_0_split
I0415 04:06:52.726557   174 net.cpp:94] Creating Layer data_data_0_split
I0415 04:06:52.726562   174 net.cpp:435] data_data_0_split <- data
I0415 04:06:52.726569   174 net.cpp:409] data_data_0_split -> data_data_0_split_0
I0415 04:06:52.726578   174 net.cpp:409] data_data_0_split -> data_data_0_split_1
I0415 04:06:52.726624   174 net.cpp:144] Setting up data_data_0_split
I0415 04:06:52.726632   174 net.cpp:151] Top shape: 4 1 256 256 (262144)
I0415 04:06:52.726639   174 net.cpp:151] Top shape: 4 1 256 256 (262144)
I0415 04:06:52.726642   174 net.cpp:159] Memory required for data: 3145728
I0415 04:06:52.726646   174 layer_factory.hpp:77] Creating layer label
I0415 04:06:52.727788   174 net.cpp:94] Creating Layer label
I0415 04:06:52.727802   174 net.cpp:409] label -> label
I0415 04:06:52.728652   216 db_lmdb.cpp:35] Opened lmdb /jobs/20180415-035312-4d49/val_db/labels
I0415 04:06:52.728983   174 data_layer.cpp:76] output data size: 4,1,256,256
I0415 04:06:52.731811   174 net.cpp:144] Setting up label
I0415 04:06:52.731832   174 net.cpp:151] Top shape: 4 1 256 256 (262144)
I0415 04:06:52.731840   174 net.cpp:159] Memory required for data: 4194304
I0415 04:06:52.731849   174 layer_factory.hpp:77] Creating layer label_label_0_split
I0415 04:06:52.731863   174 net.cpp:94] Creating Layer label_label_0_split
I0415 04:06:52.731870   174 net.cpp:435] label_label_0_split <- label
I0415 04:06:52.731884   174 net.cpp:409] label_label_0_split -> label_label_0_split_0
I0415 04:06:52.731901   174 net.cpp:409] label_label_0_split -> label_label_0_split_1
I0415 04:06:52.731989   174 net.cpp:144] Setting up label_label_0_split
I0415 04:06:52.732004   174 net.cpp:151] Top shape: 4 1 256 256 (262144)
I0415 04:06:52.732012   174 net.cpp:151] Top shape: 4 1 256 256 (262144)
I0415 04:06:52.732051   174 net.cpp:159] Memory required for data: 6291456
I0415 04:06:52.732062   174 layer_factory.hpp:77] Creating layer conv1
I0415 04:06:52.732079   174 net.cpp:94] Creating Layer conv1
I0415 04:06:52.732086   174 net.cpp:435] conv1 <- data_data_0_split_0
I0415 04:06:52.732107   174 net.cpp:409] conv1 -> conv1
I0415 04:06:52.740768   174 net.cpp:144] Setting up conv1
I0415 04:06:52.740793   174 net.cpp:151] Top shape: 4 96 112 112 (4816896)
I0415 04:06:52.740802   174 net.cpp:159] Memory required for data: 25559040
I0415 04:06:52.740821   174 layer_factory.hpp:77] Creating layer relu1
I0415 04:06:52.740856   174 net.cpp:94] Creating Layer relu1
I0415 04:06:52.740869   174 net.cpp:435] relu1 <- conv1
I0415 04:06:52.740881   174 net.cpp:396] relu1 -> conv1 (in-place)
I0415 04:06:52.740896   174 net.cpp:144] Setting up relu1
I0415 04:06:52.740906   174 net.cpp:151] Top shape: 4 96 112 112 (4816896)
I0415 04:06:52.740913   174 net.cpp:159] Memory required for data: 44826624
I0415 04:06:52.740919   174 layer_factory.hpp:77] Creating layer pool1
I0415 04:06:52.740931   174 net.cpp:94] Creating Layer pool1
I0415 04:06:52.740941   174 net.cpp:435] pool1 <- conv1
I0415 04:06:52.740952   174 net.cpp:409] pool1 -> pool1
I0415 04:06:52.741051   174 net.cpp:144] Setting up pool1
I0415 04:06:52.741062   174 net.cpp:151] Top shape: 4 96 56 56 (1204224)
I0415 04:06:52.741066   174 net.cpp:159] Memory required for data: 49643520
I0415 04:06:52.741071   174 layer_factory.hpp:77] Creating layer norm1
I0415 04:06:52.741081   174 net.cpp:94] Creating Layer norm1
I0415 04:06:52.741086   174 net.cpp:435] norm1 <- pool1
I0415 04:06:52.741092   174 net.cpp:409] norm1 -> norm1
I0415 04:06:52.741137   174 net.cpp:144] Setting up norm1
I0415 04:06:52.741147   174 net.cpp:151] Top shape: 4 96 56 56 (1204224)
I0415 04:06:52.741150   174 net.cpp:159] Memory required for data: 54460416
I0415 04:06:52.741154   174 layer_factory.hpp:77] Creating layer conv2
I0415 04:06:52.741166   174 net.cpp:94] Creating Layer conv2
I0415 04:06:52.741171   174 net.cpp:435] conv2 <- norm1
I0415 04:06:52.741178   174 net.cpp:409] conv2 -> conv2
I0415 04:06:52.757314   174 net.cpp:144] Setting up conv2
I0415 04:06:52.757328   174 net.cpp:151] Top shape: 4 256 56 56 (3211264)
I0415 04:06:52.757333   174 net.cpp:159] Memory required for data: 67305472
I0415 04:06:52.757344   174 layer_factory.hpp:77] Creating layer relu2
I0415 04:06:52.757352   174 net.cpp:94] Creating Layer relu2
I0415 04:06:52.757356   174 net.cpp:435] relu2 <- conv2
I0415 04:06:52.757364   174 net.cpp:396] relu2 -> conv2 (in-place)
I0415 04:06:52.757372   174 net.cpp:144] Setting up relu2
I0415 04:06:52.757380   174 net.cpp:151] Top shape: 4 256 56 56 (3211264)
I0415 04:06:52.757383   174 net.cpp:159] Memory required for data: 80150528
I0415 04:06:52.757386   174 layer_factory.hpp:77] Creating layer pool2
I0415 04:06:52.757395   174 net.cpp:94] Creating Layer pool2
I0415 04:06:52.757398   174 net.cpp:435] pool2 <- conv2
I0415 04:06:52.757405   174 net.cpp:409] pool2 -> pool2
I0415 04:06:52.757452   174 net.cpp:144] Setting up pool2
I0415 04:06:52.757462   174 net.cpp:151] Top shape: 4 256 28 28 (802816)
I0415 04:06:52.757465   174 net.cpp:159] Memory required for data: 83361792
I0415 04:06:52.757469   174 layer_factory.hpp:77] Creating layer norm2
I0415 04:06:52.757480   174 net.cpp:94] Creating Layer norm2
I0415 04:06:52.757485   174 net.cpp:435] norm2 <- pool2
I0415 04:06:52.757491   174 net.cpp:409] norm2 -> norm2
I0415 04:06:52.757532   174 net.cpp:144] Setting up norm2
I0415 04:06:52.757540   174 net.cpp:151] Top shape: 4 256 28 28 (802816)
I0415 04:06:52.757544   174 net.cpp:159] Memory required for data: 86573056
I0415 04:06:52.757549   174 layer_factory.hpp:77] Creating layer conv3
I0415 04:06:52.757557   174 net.cpp:94] Creating Layer conv3
I0415 04:06:52.757562   174 net.cpp:435] conv3 <- norm2
I0415 04:06:52.757570   174 net.cpp:409] conv3 -> conv3
I0415 04:06:52.780375   174 net.cpp:144] Setting up conv3
I0415 04:06:52.780390   174 net.cpp:151] Top shape: 4 384 28 28 (1204224)
I0415 04:06:52.780422   174 net.cpp:159] Memory required for data: 91389952
I0415 04:06:52.780434   174 layer_factory.hpp:77] Creating layer relu3
I0415 04:06:52.780443   174 net.cpp:94] Creating Layer relu3
I0415 04:06:52.780448   174 net.cpp:435] relu3 <- conv3
I0415 04:06:52.780455   174 net.cpp:396] relu3 -> conv3 (in-place)
I0415 04:06:52.780465   174 net.cpp:144] Setting up relu3
I0415 04:06:52.780472   174 net.cpp:151] Top shape: 4 384 28 28 (1204224)
I0415 04:06:52.780475   174 net.cpp:159] Memory required for data: 96206848
I0415 04:06:52.780483   174 layer_factory.hpp:77] Creating layer conv4
I0415 04:06:52.780491   174 net.cpp:94] Creating Layer conv4
I0415 04:06:52.780496   174 net.cpp:435] conv4 <- conv3
I0415 04:06:52.780504   174 net.cpp:409] conv4 -> conv4
I0415 04:06:52.817198   174 net.cpp:144] Setting up conv4
I0415 04:06:52.817214   174 net.cpp:151] Top shape: 4 384 28 28 (1204224)
I0415 04:06:52.817217   174 net.cpp:159] Memory required for data: 101023744
I0415 04:06:52.817225   174 layer_factory.hpp:77] Creating layer relu4
I0415 04:06:52.817234   174 net.cpp:94] Creating Layer relu4
I0415 04:06:52.817239   174 net.cpp:435] relu4 <- conv4
I0415 04:06:52.817245   174 net.cpp:396] relu4 -> conv4 (in-place)
I0415 04:06:52.817253   174 net.cpp:144] Setting up relu4
I0415 04:06:52.817260   174 net.cpp:151] Top shape: 4 384 28 28 (1204224)
I0415 04:06:52.817263   174 net.cpp:159] Memory required for data: 105840640
I0415 04:06:52.817267   174 layer_factory.hpp:77] Creating layer conv5
I0415 04:06:52.817278   174 net.cpp:94] Creating Layer conv5
I0415 04:06:52.817282   174 net.cpp:435] conv5 <- conv4
I0415 04:06:52.817289   174 net.cpp:409] conv5 -> conv5
I0415 04:06:52.840811   174 net.cpp:144] Setting up conv5
I0415 04:06:52.840824   174 net.cpp:151] Top shape: 4 256 28 28 (802816)
I0415 04:06:52.840828   174 net.cpp:159] Memory required for data: 109051904
I0415 04:06:52.840839   174 layer_factory.hpp:77] Creating layer relu5
I0415 04:06:52.840848   174 net.cpp:94] Creating Layer relu5
I0415 04:06:52.840852   174 net.cpp:435] relu5 <- conv5
I0415 04:06:52.840859   174 net.cpp:396] relu5 -> conv5 (in-place)
I0415 04:06:52.840868   174 net.cpp:144] Setting up relu5
I0415 04:06:52.840883   174 net.cpp:151] Top shape: 4 256 28 28 (802816)
I0415 04:06:52.840885   174 net.cpp:159] Memory required for data: 112263168
I0415 04:06:52.840889   174 layer_factory.hpp:77] Creating layer pool5
I0415 04:06:52.840898   174 net.cpp:94] Creating Layer pool5
I0415 04:06:52.840901   174 net.cpp:435] pool5 <- conv5
I0415 04:06:52.840909   174 net.cpp:409] pool5 -> pool5
I0415 04:06:52.840958   174 net.cpp:144] Setting up pool5
I0415 04:06:52.840967   174 net.cpp:151] Top shape: 4 256 14 14 (200704)
I0415 04:06:52.840970   174 net.cpp:159] Memory required for data: 113065984
I0415 04:06:52.840975   174 layer_factory.hpp:77] Creating layer fc6
I0415 04:06:52.840984   174 net.cpp:94] Creating Layer fc6
I0415 04:06:52.840988   174 net.cpp:435] fc6 <- pool5
I0415 04:06:52.840996   174 net.cpp:409] fc6 -> fc6
I0415 04:06:53.053252   174 net.cpp:144] Setting up fc6
I0415 04:06:53.053290   174 net.cpp:151] Top shape: 4 4096 9 9 (1327104)
I0415 04:06:53.053295   174 net.cpp:159] Memory required for data: 118374400
I0415 04:06:53.053318   174 layer_factory.hpp:77] Creating layer relu6
I0415 04:06:53.053331   174 net.cpp:94] Creating Layer relu6
I0415 04:06:53.053337   174 net.cpp:435] relu6 <- fc6
I0415 04:06:53.053346   174 net.cpp:396] relu6 -> fc6 (in-place)
I0415 04:06:53.053359   174 net.cpp:144] Setting up relu6
I0415 04:06:53.053365   174 net.cpp:151] Top shape: 4 4096 9 9 (1327104)
I0415 04:06:53.053369   174 net.cpp:159] Memory required for data: 123682816
I0415 04:06:53.053373   174 layer_factory.hpp:77] Creating layer drop6
I0415 04:06:53.053381   174 net.cpp:94] Creating Layer drop6
I0415 04:06:53.053385   174 net.cpp:435] drop6 <- fc6
I0415 04:06:53.053391   174 net.cpp:396] drop6 -> fc6 (in-place)
I0415 04:06:53.053448   174 net.cpp:144] Setting up drop6
I0415 04:06:53.053457   174 net.cpp:151] Top shape: 4 4096 9 9 (1327104)
I0415 04:06:53.053490   174 net.cpp:159] Memory required for data: 128991232
I0415 04:06:53.053496   174 layer_factory.hpp:77] Creating layer fc7
I0415 04:06:53.053516   174 net.cpp:94] Creating Layer fc7
I0415 04:06:53.053521   174 net.cpp:435] fc7 <- fc6
I0415 04:06:53.053529   174 net.cpp:409] fc7 -> fc7
I0415 04:06:53.146915   174 net.cpp:144] Setting up fc7
I0415 04:06:53.146953   174 net.cpp:151] Top shape: 4 4096 9 9 (1327104)
I0415 04:06:53.146958   174 net.cpp:159] Memory required for data: 134299648
I0415 04:06:53.146970   174 layer_factory.hpp:77] Creating layer relu7
I0415 04:06:53.146982   174 net.cpp:94] Creating Layer relu7
I0415 04:06:53.146988   174 net.cpp:435] relu7 <- fc7
I0415 04:06:53.146997   174 net.cpp:396] relu7 -> fc7 (in-place)
I0415 04:06:53.147011   174 net.cpp:144] Setting up relu7
I0415 04:06:53.147017   174 net.cpp:151] Top shape: 4 4096 9 9 (1327104)
I0415 04:06:53.147020   174 net.cpp:159] Memory required for data: 139608064
I0415 04:06:53.147024   174 layer_factory.hpp:77] Creating layer drop7
I0415 04:06:53.147032   174 net.cpp:94] Creating Layer drop7
I0415 04:06:53.147037   174 net.cpp:435] drop7 <- fc7
I0415 04:06:53.147042   174 net.cpp:396] drop7 -> fc7 (in-place)
I0415 04:06:53.147089   174 net.cpp:144] Setting up drop7
I0415 04:06:53.147097   174 net.cpp:151] Top shape: 4 4096 9 9 (1327104)
I0415 04:06:53.147101   174 net.cpp:159] Memory required for data: 144916480
I0415 04:06:53.147105   174 layer_factory.hpp:77] Creating layer score_fr_2classes
I0415 04:06:53.147117   174 net.cpp:94] Creating Layer score_fr_2classes
I0415 04:06:53.147122   174 net.cpp:435] score_fr_2classes <- fc7
I0415 04:06:53.147130   174 net.cpp:409] score_fr_2classes -> score_fr_2classes
I0415 04:06:53.150698   174 net.cpp:144] Setting up score_fr_2classes
I0415 04:06:53.150712   174 net.cpp:151] Top shape: 4 2 9 9 (648)
I0415 04:06:53.150717   174 net.cpp:159] Memory required for data: 144919072
I0415 04:06:53.150725   174 layer_factory.hpp:77] Creating layer upscore_2classes
I0415 04:06:53.150737   174 net.cpp:94] Creating Layer upscore_2classes
I0415 04:06:53.150741   174 net.cpp:435] upscore_2classes <- score_fr_2classes
I0415 04:06:53.150750   174 net.cpp:409] upscore_2classes -> upscore_2classes
I0415 04:06:53.151273   174 net.cpp:144] Setting up upscore_2classes
I0415 04:06:53.151285   174 net.cpp:151] Top shape: 4 2 319 319 (814088)
I0415 04:06:53.151289   174 net.cpp:159] Memory required for data: 148175424
I0415 04:06:53.151302   174 layer_factory.hpp:77] Creating layer score
I0415 04:06:53.151311   174 net.cpp:94] Creating Layer score
I0415 04:06:53.151316   174 net.cpp:435] score <- upscore_2classes
I0415 04:06:53.151321   174 net.cpp:435] score <- data_data_0_split_1
I0415 04:06:53.151330   174 net.cpp:409] score -> score
I0415 04:06:53.151365   174 net.cpp:144] Setting up score
I0415 04:06:53.151372   174 net.cpp:151] Top shape: 4 2 256 256 (524288)
I0415 04:06:53.151376   174 net.cpp:159] Memory required for data: 150272576
I0415 04:06:53.151381   174 layer_factory.hpp:77] Creating layer score_score_0_split
I0415 04:06:53.151388   174 net.cpp:94] Creating Layer score_score_0_split
I0415 04:06:53.151393   174 net.cpp:435] score_score_0_split <- score
I0415 04:06:53.151399   174 net.cpp:409] score_score_0_split -> score_score_0_split_0
I0415 04:06:53.151408   174 net.cpp:409] score_score_0_split -> score_score_0_split_1
I0415 04:06:53.151451   174 net.cpp:144] Setting up score_score_0_split
I0415 04:06:53.151460   174 net.cpp:151] Top shape: 4 2 256 256 (524288)
I0415 04:06:53.151469   174 net.cpp:151] Top shape: 4 2 256 256 (524288)
I0415 04:06:53.151473   174 net.cpp:159] Memory required for data: 154466880
I0415 04:06:53.151484   174 layer_factory.hpp:77] Creating layer loss
I0415 04:06:53.151504   174 net.cpp:94] Creating Layer loss
I0415 04:06:53.151515   174 net.cpp:435] loss <- score_score_0_split_0
I0415 04:06:53.151523   174 net.cpp:435] loss <- label_label_0_split_0
I0415 04:06:53.151531   174 net.cpp:409] loss -> loss
…
